…
5], 'has_tail_pattern': [86, 87, 88], 'has_belly_pattern': [89], 'has_primary_color': [90, 91, 92, 93, 94, 95], 'has_leg_color': [96, 97, 98], 'has_bill_color': [99, 100, 101], 'has_crown_color': [102, 103, 104, 105, 106, 107], 'has_wing_pattern': [108, 109, 110, 111]})
[2024-11-18 11:38:23 INFO]architecture -> ConceptEmbeddingModel
[2024-11-18 11:38:23 INFO]run_name -> CEM
[2024-11-18 11:38:23 INFO]embedding_activation -> leakyrelu
[2024-11-18 11:38:23 INFO]result_dir -> ./checkpoints/CUB-200-2011_11-37
[2024-11-18 11:38:24 INFO]ConceptEmbeddingModel(
  (pre_concept_model): ResNet(
    (conv1): Conv2d(3, 64, kernel_size=(7, 7), stride=(2, 2), padding=(3, 3), bias=False)
    (bn1): BatchNorm2d(64, eps=1e-05, momentum=0.1, affine=True, track_running_stats=True)
    (relu): ReLU(inplace=True)
    (maxpool): MaxPool2d(kernel_size=3, stride=2, padding=1, dilation=1, ceil_mode=False)
    (layer1): Sequential(
      (0): BasicBlock(
        (conv1): Conv2d(64, 64, kernel_size=(3, 3), stride=(1, 1), padding=(1, 1), bias=False)
        (bn1): BatchNorm2d(64, eps=1e-05, momentum=0.1, affine=True, track_running_stats=True)
        (relu): ReLU(inplace=True)
        (conv2): Conv2d(64, 64, kernel_size=(3, 3), stride=(1, 1), padding=(1, 1), bias=False)
        (bn2): BatchNorm2d(64, eps=1e-05, momentum=0.1, affine=True, track_running_stats=True)
      )
      (1): BasicBlock(
        (conv1): Conv2d(64, 64, kernel_size=(3, 3), stride=(1, 1), padding=(1, 1), bias=False)
        (bn1): BatchNorm2d(64, eps=1e-05, momentum=0.1, affine=True, track_running_stats=True)
        (relu): ReLU(inplace=True)
        (conv2): Conv2d(64, 64, kernel_size=(3, 3), stride=(1, 1), padding=(1, 1), bias=False)
        (bn2): BatchNorm2d(64, eps=1e-05, momentum=0.1, affine=True, track_running_stats=True)
      )
      (2): BasicBlock(
        (conv1): Conv2d(64, 64, kernel_size=(3, 3), stride=(1, 1), padding=(1, 1), bias=False)
        (bn1): BatchNorm2d(64, eps=1e-05, momentum=0.1, affine=True, track_running_stats=True)
        (relu): ReLU(inplace=True)
        (conv2): Conv2d(64, 64, kernel_size=(3, 3), stride=(1, 1), padding=(1, 1), bias=False)
        (bn2): BatchNorm2d(64, eps=1e-05, momentum=0.1, affine=True, track_running_stats=True)
      )
    )
    (layer2): Sequential(
      (0): BasicBlock(
        (conv1): Conv2d(64, 128, kernel_size=(3, 3), stride=(2, 2), padding=(1, 1), bias=False)
        (bn1): BatchNorm2d(128, eps=1e-05, momentum=0.1, affine=True, track_running_stats=True)
        (relu): ReLU(inplace=True)
        (conv2): Conv2d(128, 128, kernel_size=(3, 3), stride=(1, 1), padding=(1, 1), bias=False)
        (bn2): BatchNorm2d(128, eps=1e-05, momentum=0.1, affine=True, track_running_stats=True)
        (downsample): Sequential(
          (0): Conv2d(64, 128, kernel_size=(1, 1), stride=(2, 2), bias=False)
          (1): BatchNorm2d(128, eps=1e-05, momentum=0.1, affine=True, track_running_stats=True)
        )
      )
      (1): BasicBlock(
        (conv1): Conv2d(128, 128, kernel_size=(3, 3), stride=(1, 1), padding=(1, 1), bias=False)
        (bn1): BatchNorm2d(128, eps=1e-05, momentum=0.1, affine=True, track_running_stats=True)
        (relu): ReLU(inplace=True)
        (conv2): Conv2d(128, 128, kernel_size=(3, 3), stride=(1, 1), padding=(1, 1), bias=False)
        (bn2): BatchNorm2d(128, eps=1e-05, momentum=0.1, affine=True, track_running_stats=True)
      )
      (2): BasicBlock(
        (conv1): Conv2d(128, 128, kernel_size=(3, 3), stride=(1, 1), padding=(1, 1), bias=False)
        (bn1): BatchNorm2d(128, eps=1e-05, momentum=0.1, affine=True, track_running_stats=True)
        (relu): ReLU(inplace=True)
        (conv2): Conv2d(128, 128, kernel_size=(3, 3), stride=(1, 1), padding=(1, 1), bias=False)
        (bn2): BatchNorm2d(128, eps=1e-05, momentum=0.1, affine=True, track_running_stats=True)
      )
      (3): BasicBlock(
        (conv1): Conv2d(128, 128, kernel_size=(3, 3), stride=(1, 1), padding=(1, 1), bias=False)
        (bn1): BatchNorm2d(128, eps=1e-05, momentum=0.1, affine=True, track_running_stats=True)
        (relu): ReLU(inplace=True)
        (conv2): Conv2d(128, 128, kernel_size=(3, 3), stride=(1, 1), padding=(1, 1), bias=False)
        (bn2): BatchNorm2d(128, eps=1e-05, momentum=0.1, affine=True, track_running_stats=True)
      )
    )
    (layer3): Sequential(
      (0): BasicBlock(
        (conv1): Conv2d(128, 256, kernel_size=(3, 3), stride=(2, 2), padding=(1, 1), bias=False)
        (bn1): BatchNorm2d(256, eps=1e-05, momentum=0.1, affine=True, track_running_stats=True)
        (relu): ReLU(inplace=True)
        (conv2): Conv2d(256, 256, kernel_size=(3, 3), stride=(1, 1), padding=(1, 1), bias=False)
        (bn2): BatchNorm2d(256, eps=1e-05, momentum=0.1, affine=True, track_running_stats=True)
        (downsample): Sequential(
          (0): Conv2d(128, 256, kernel_size=(1, 1), stride=(2, 2), bias=False)
          (1): BatchNorm2d(256, eps=1e-05, momentum=0.1, affine=True, track_running_stats=True)
        )
      )
      (1): BasicBlock(
        (conv1): Conv2d(256, 256, kernel_size=(3, 3), stride=(1, 1), padding=(1, 1), bias=False)
        (bn1): BatchNorm2d(256, eps=1e-05, momentum=0.1, affine=True, track_running_stats=True)
        (relu): ReLU(inplace=True)
        (conv2): Conv2d(256, 256, kernel_size=(3, 3), stride=(1, 1), padding=(1, 1), bias=False)
        (bn2): BatchNorm2d(256, eps=1e-05, momentum=0.1, affine=True, track_running_stats=True)
      )
      (2): BasicBlock(
        (conv1): Conv2d(256, 256, kernel_size=(3, 3), stride=(1, 1), padding=(1, 1), bias=False)
        (bn1): BatchNorm2d(256, eps=1e-05, momentum=0.1, affine=True, track_running_stats=True)
        (relu): ReLU(inplace=True)
        (conv2): Conv2d(256, 256, kernel_size=(3, 3), stride=(1, 1), padding=(1, 1), bias=False)
        (bn2): BatchNorm2d(256, eps=1e-05, momentum=0.1, affine=True, track_running_stats=True)
      )
      (3): BasicBlock(
        (conv1): Conv2d(256, 256, kernel_size=(3, 3), stride=(1, 1), padding=(1, 1), bias=False)
        (bn1): BatchNorm2d(256, eps=1e-05, momentum=0.1, affine=True, track_running_stats=True)
        (relu): ReLU(inplace=True)
        (conv2): Conv2d(256, 256, kernel_size=(3, 3), stride=(1, 1), padding=(1, 1), bias=False)
        (bn2): BatchNorm2d(256, eps=1e-05, momentum=0.1, affine=True, track_running_stats=True)
      )
      (4): BasicBlock(
        (conv1): Conv2d(256, 256, kernel_size=(3, 3), stride=(1, 1), padding=(1, 1), bias=False)
        (bn1): BatchNorm2d(256, eps=1e-05, momentum=0.1, affine=True, track_running_stats=True)
        (relu): ReLU(inplace=True)
        (conv2): Conv2d(256, 256, kernel_size=(3, 3), stride=(1, 1), padding=(1, 1), bias=False)
        (bn2): BatchNorm2d(256, eps=1e-05, momentum=0.1, affine=True, track_running_stats=True)
      )
      (5): BasicBlock(
        (conv1): Conv2d(256, 256, kernel_size=(3, 3), stride=(1, 1), padding=(1, 1), bias=False)
        (bn1): BatchNorm2d(256, eps=1e-05, momentum=0.1, affine=True, track_running_stats=True)
        (relu): ReLU(inplace=True)
        (conv2): Conv2d(256, 256, kernel_size=(3, 3), stride=(1, 1), padding=(1, 1), bias=False)
        (bn2): BatchNorm2d(256, eps=1e-05, momentum=0.1, affine=True, track_running_stats=True)
      )
    )
    (layer4): Sequential(
      (0): BasicBlock(
        (conv1): Conv2d(256, 512, kernel_size=(3, 3), stride=(2, 2), padding=(1, 1), bias=False)
        (bn1): BatchNorm2d(512, eps=1e-05, momentum=0.1, affine=True, track_running_stats=True)
        (relu): ReLU(inplace=True)
        (conv2): Conv2d(512, 512, kernel_size=(3, 3), stride=(1, 1), padding=(1, 1), bias=False)
        (bn2): BatchNorm2d(512, eps=1e-05, momentum=0.1, affine=True, track_running_stats=True)
        (downsample): Sequential(
          (0): Conv2d(256, 512, kernel_size=(1, 1), stride=(2, 2), bias=False)
          (1): BatchNorm2d(512, eps=1e-05, momentum=0.1, affine=True, track_running_stats=True)
        )
      )
      (1): BasicBlock(
        (conv1): Conv2d(512, 512, kernel_size=(3, 3), stride=(1, 1), padding=(1, 1), bias=False)
        (bn1): BatchNorm2d(512, eps=1e-05, momentum=0.1, affine=True, track_running_stats=True)
        (relu): ReLU(inplace=True)
        (conv2): Conv2d(512, 512, kernel_size=(3, 3), stride=(1, 1), padding=(1, 1), bias=False)
        (bn2): BatchNorm2d(512, eps=1e-05, momentum=0.1, affine=True, track_running_stats=True)
      )
      (2): BasicBlock(
        (conv1): Conv2d(512, 512, kernel_size=(3, 3), stride=(1, 1), padding=(1, 1), bias=False)
        (bn1): BatchNorm2d(512, eps=1e-05, momentum=0.1, affine=True, track_running_stats=True)
        (relu): ReLU(inplace=True)
        (conv2): Conv2d(512, 512, kernel_size=(3, 3), stride=(1, 1), padding=(1, 1), bias=False)
        (bn2): BatchNorm2d(512, eps=1e-05, momentum=0.1, affine=True, track_running_stats=True)
      )
    )
    (avgpool): AdaptiveAvgPool2d(output_size=(1, 1))
    (fc): Linear(in_features=512, out_features=1000, bias=True)
  )
  (concept_context_generators): ModuleList(
    (0): Sequential(
      (0): Linear(in_features=1000, out_features=64, bias=True)
      (1): LeakyReLU(negative_slope=0.01)
    )
    (1): Sequential(
      (0): Linear(in_features=1000, out_features=64, bias=True)
      (1): LeakyReLU(negative_slope=0.01)
    )
    (2): Sequential(
      (0): Linear(in_features=1000, out_features=64, bias=True)
      (1): LeakyReLU(negative_slope=0.01)
    )
    (3): Sequential(
      (0): Linear(in_features=1000, out_features=64, bias=True)
      (1): LeakyReLU(negative_slope=0.01)
    )
    (4): Sequential(
      (0): Linear(in_features=1000, out_features=64, bias=True)
      (1): LeakyReLU(negative_slope=0.01)
    )
    (5): Sequential(
      (0): Linear(in_features=1000, out_features=64, bias=True)
      (1): LeakyReLU(negative_slope=0.01)
    )
    (6): Sequential(
      (0): Linear(in_features=1000, out_features=64, bias=True)
      (1): LeakyReLU(negative_slope=0.01)
    )
    (7): Sequential(
      (0): Linear(in_features=1000, out_features=64, bias=True)
      (1): LeakyReLU(negative_slope=0.01)
    )
    (8): Sequential(
      (0): Linear(in_features=1000, out_features=64, bias=True)
      (1): LeakyReLU(negative_slope=0.01)
    )
    (9): Sequential(
      (0): Linear(in_features=1000, out_features=64, bias=True)
      (1): LeakyReLU(negative_slope=0.01)
    )
    (10): Sequential(
      (0): Linear(in_features=1000, out_features=64, bias=True)
      (1): LeakyReLU(negative_slope=0.01)
    )
    (11): Sequential(
      (0): Linear(in_features=1000, out_features=64, bias=True)
      (1): LeakyReLU(negative_slope=0.01)
    )
    (12): Sequential(
      (0): Linear(in_features=1000, out_features=64, bias=True)
      (1): LeakyReLU(negative_slope=0.01)
    )
    (13): Sequential(
      (0): Linear(in_features=1000, out_features=64, bias=True)
      (1): LeakyReLU(negative_slope=0.01)
    )
    (14): Sequential(
      (0): Linear(in_features=1000, out_features=64, bias=True)
      (1): LeakyReLU(negative_slope=0.01)
    )
    (15): Sequential(
      (0): Linear(in_features=1000, out_features=64, bias=True)
      (1): LeakyReLU(negative_slope=0.01)
    )
    (16): Sequential(
      (0): Linear(in_features=1000, out_features=64, bias=True)
      (1): LeakyReLU(negative_slope=0.01)
    )
    (17): Sequential(
      (0): Linear(in_features=1000, out_features=64, bias=True)
      (1): LeakyReLU(negative_slope=0.01)
    )
    (18): Sequential(
      (0): Linear(in_features=1000, out_features=64, bias=True)
      (1): LeakyReLU(negative_slope=0.01)
    )
    (19): Sequential(
      (0): Linear(in_features=1000, out_features=64, bias=True)
      (1): LeakyReLU(negative_slope=0.01)
    )
    (20): Sequential(
      (0): Linear(in_features=1000, out_features=64, bias=True)
      (1): LeakyReLU(negative_slope=0.01)
    )
    (21): Sequential(
      (0): Linear(in_features=1000, out_features=64, bias=True)
      (1): LeakyReLU(negative_slope=0.01)
    )
    (22): Sequential(
      (0): Linear(in_features=1000, out_features=64, bias=True)
      (1): LeakyReLU(negative_slope=0.01)
    )
    (23): Sequential(
      (0): Linear(in_features=1000, out_features=64, bias=True)
      (1): LeakyReLU(negative_slope=0.01)
    )
    (24): Sequential(
      (0): Linear(in_features=1000, out_features=64, bias=True)
      (1): LeakyReLU(negative_slope=0.01)
    )
    (25): Sequential(
      (0): Linear(in_features=1000, out_features=64, bias=True)
      (1): LeakyReLU(negative_slope=0.01)
    )
    (26): Sequential(
      (0): Linear(in_features=1000, out_features=64, bias=True)
      (1): LeakyReLU(negative_slope=0.01)
    )
    (27): Sequential(
      (0): Linear(in_features=1000, out_features=64, bias=True)
      (1): LeakyReLU(negative_slope=0.01)
    )
    (28): Sequential(
      (0): Linear(in_features=1000, out_features=64, bias=True)
      (1): LeakyReLU(negative_slope=0.01)
    )
    (29): Sequential(
      (0): Linear(in_features=1000, out_features=64, bias=True)
      (1): LeakyReLU(negative_slope=0.01)
    )
    (30): Sequential(
      (0): Linear(in_features=1000, out_features=64, bias=True)
      (1): LeakyReLU(negative_slope=0.01)
    )
    (31): Sequential(
      (0): Linear(in_features=1000, out_features=64, bias=True)
      (1): LeakyReLU(negative_slope=0.01)
    )
    (32): Sequential(
      (0): Linear(in_features=1000, out_features=64, bias=True)
      (1): LeakyReLU(negative_slope=0.01)
    )
    (33): Sequential(
      (0): Linear(in_features=1000, out_features=64, bias=True)
      (1): LeakyReLU(negative_slope=0.01)
    )
    (34): Sequential(
      (0): Linear(in_features=1000, out_features=64, bias=True)
      (1): LeakyReLU(negative_slope=0.01)
    )
    (35): Sequential(
      (0): Linear(in_features=1000, out_features=64, bias=True)
      (1): LeakyReLU(negative_slope=0.01)
    )
    (36): Sequential(
      (0): Linear(in_features=1000, out_features=64, bias=True)
      (1): LeakyReLU(negative_slope=0.01)
    )
    (37): Sequential(
      (0): Linear(in_features=1000, out_features=64, bias=True)
      (1): LeakyReLU(negative_slope=0.01)
    )
    (38): Sequential(
      (0): Linear(in_features=1000, out_features=64, bias=True)
      (1): LeakyReLU(negative_slope=0.01)
    )
    (39): Sequential(
      (0): Linear(in_features=1000, out_features=64, bias=True)
      (1): LeakyReLU(negative_slope=0.01)
    )
    (40): Sequential(
      (0): Linear(in_features=1000, out_features=64, bias=True)
      (1): LeakyReLU(negative_slope=0.01)
    )
    (41): Sequential(
      (0): Linear(in_features=1000, out_features=64, bias=True)
      (1): LeakyReLU(negative_slope=0.01)
    )
    (42): Sequential(
      (0): Linear(in_features=1000, out_features=64, bias=True)
      (1): LeakyReLU(negative_slope=0.01)
    )
    (43): Sequential(
      (0): Linear(in_features=1000, out_features=64, bias=True)
      (1): LeakyReLU(negative_slope=0.01)
    )
    (44): Sequential(
      (0): Linear(in_features=1000, out_features=64, bias=True)
      (1): LeakyReLU(negative_slope=0.01)
    )
    (45): Sequential(
      (0): Linear(in_features=1000, out_features=64, bias=True)
      (1): LeakyReLU(negative_slope=0.01)
    )
    (46): Sequential(
      (0): Linear(in_features=1000, out_features=64, bias=True)
      (1): LeakyReLU(negative_slope=0.01)
    )
    (47): Sequential(
      (0): Linear(in_features=1000, out_features=64, bias=True)
      (1): LeakyReLU(negative_slope=0.01)
    )
    (48): Sequential(
      (0): Linear(in_features=1000, out_features=64, bias=True)
      (1): LeakyReLU(negative_slope=0.01)
    )
    (49): Sequential(
      (0): Linear(in_features=1000, out_features=64, bias=True)
      (1): LeakyReLU(negative_slope=0.01)
    )
    (50): Sequential(
      (0): Linear(in_features=1000, out_features=64, bias=True)
      (1): LeakyReLU(negative_slope=0.01)
    )
    (51): Sequential(
      (0): Linear(in_features=1000, out_features=64, bias=True)
      (1): LeakyReLU(negative_slope=0.01)
    )
    (52): Sequential(
      (0): Linear(in_features=1000, out_features=64, bias=True)
      (1): LeakyReLU(negative_slope=0.01)
    )
    (53): Sequential(
      (0): Linear(in_features=1000, out_features=64, bias=True)
      (1): LeakyReLU(negative_slope=0.01)
    )
    (54): Sequential(
      (0): Linear(in_features=1000, out_features=64, bias=True)
      (1): LeakyReLU(negative_slope=0.01)
    )
    (55): Sequential(
      (0): Linear(in_features=1000, out_features=64, bias=True)
      (1): LeakyReLU(negative_slope=0.01)
    )
    (56): Sequential(
      (0): Linear(in_features=1000, out_features=64, bias=True)
      (1): LeakyReLU(negative_slope=0.01)
    )
    (57): Sequential(
      (0): Linear(in_features=1000, out_features=64, bias=True)
      (1): LeakyReLU(negative_slope=0.01)
    )
    (58): Sequential(
      (0): Linear(in_features=1000, out_features=64, bias=True)
      (1): LeakyReLU(negative_slope=0.01)
    )
    (59): Sequential(
      (0): Linear(in_features=1000, out_features=64, bias=True)
      (1): LeakyReLU(negative_slope=0.01)
    )
    (60): Sequential(
      (0): Linear(in_features=1000, out_features=64, bias=True)
      (1): LeakyReLU(negative_slope=0.01)
    )
    (61): Sequential(
      (0): Linear(in_features=1000, out_features=64, bias=True)
      (1): LeakyReLU(negative_slope=0.01)
    )
    (62): Sequential(
      (0): Linear(in_features=1000, out_features=64, bias=True)
      (1): LeakyReLU(negative_slope=0.01)
    )
    (63): Sequential(
      (0): Linear(in_features=1000, out_features=64, bias=True)
      (1): LeakyReLU(negative_slope=0.01)
    )
    (64): Sequential(
      (0): Linear(in_features=1000, out_features=64, bias=True)
      (1): LeakyReLU(negative_slope=0.01)
    )
    (65): Sequential(
      (0): Linear(in_features=1000, out_features=64, bias=True)
      (1): LeakyReLU(negative_slope=0.01)
    )
    (66): Sequential(
      (0): Linear(in_features=1000, out_features=64, bias=True)
      (1): LeakyReLU(negative_slope=0.01)
    )
    (67): Sequential(
      (0): Linear(in_features=1000, out_features=64, bias=True)
      (1): LeakyReLU(negative_slope=0.01)
    )
    (68): Sequential(
      (0): Linear(in_features=1000, out_features=64, bias=True)
      (1): LeakyReLU(negative_slope=0.01)
    )
    (69): Sequential(
      (0): Linear(in_features=1000, out_features=64, bias=True)
      (1): LeakyReLU(negative_slope=0.01)
    )
    (70): Sequential(
      (0): Linear(in_features=1000, out_features=64, bias=True)
      (1): LeakyReLU(negative_slope=0.01)
    )
    (71): Sequential(
      (0): Linear(in_features=1000, out_features=64, bias=True)
      (1): LeakyReLU(negative_slope=0.01)
    )
    (72): Sequential(
      (0): Linear(in_features=1000, out_features=64, bias=True)
      (1): LeakyReLU(negative_slope=0.01)
    )
    (73): Sequential(
      (0): Linear(in_features=1000, out_features=64, bias=True)
      (1): LeakyReLU(negative_slope=0.01)
    )
    (74): Sequential(
      (0): Linear(in_features=1000, out_features=64, bias=True)
      (1): LeakyReLU(negative_slope=0.01)
    )
    (75): Sequential(
      (0): Linear(in_features=1000, out_features=64, bias=True)
      (1): LeakyReLU(negative_slope=0.01)
    )
    (76): Sequential(
      (0): Linear(in_features=1000, out_features=64, bias=True)
      (1): LeakyReLU(negative_slope=0.01)
    )
    (77): Sequential(
      (0): Linear(in_features=1000, out_features=64, bias=True)
      (1): LeakyReLU(negative_slope=0.01)
    )
    (78): Sequential(
      (0): Linear(in_features=1000, out_features=64, bias=True)
      (1): LeakyReLU(negative_slope=0.01)
    )
    (79): Sequential(
      (0): Linear(in_features=1000, out_features=64, bias=True)
      (1): LeakyReLU(negative_slope=0.01)
    )
    (80): Sequential(
      (0): Linear(in_features=1000, out_features=64, bias=True)
      (1): LeakyReLU(negative_slope=0.01)
    )
    (81): Sequential(
      (0): Linear(in_features=1000, out_features=64, bias=True)
      (1): LeakyReLU(negative_slope=0.01)
    )
    (82): Sequential(
      (0): Linear(in_features=1000, out_features=64, bias=True)
      (1): LeakyReLU(negative_slope=0.01)
    )
    (83): Sequential(
      (0): Linear(in_features=1000, out_features=64, bias=True)
      (1): LeakyReLU(negative_slope=0.01)
    )
    (84): Sequential(
      (0): Linear(in_features=1000, out_features=64, bias=True)
      (1): LeakyReLU(negative_slope=0.01)
    )
    (85): Sequential(
      (0): Linear(in_features=1000, out_features=64, bias=True)
      (1): LeakyReLU(negative_slope=0.01)
    )
    (86): Sequential(
      (0): Linear(in_features=1000, out_features=64, bias=True)
      (1): LeakyReLU(negative_slope=0.01)
    )
    (87): Sequential(
      (0): Linear(in_features=1000, out_features=64, bias=True)
      (1): LeakyReLU(negative_slope=0.01)
    )
    (88): Sequential(
      (0): Linear(in_features=1000, out_features=64, bias=True)
      (1): LeakyReLU(negative_slope=0.01)
    )
    (89): Sequential(
      (0): Linear(in_features=1000, out_features=64, bias=True)
      (1): LeakyReLU(negative_slope=0.01)
    )
    (90): Sequential(
      (0): Linear(in_features=1000, out_features=64, bias=True)
      (1): LeakyReLU(negative_slope=0.01)
    )
    (91): Sequential(
      (0): Linear(in_features=1000, out_features=64, bias=True)
      (1): LeakyReLU(negative_slope=0.01)
    )
    (92): Sequential(
      (0): Linear(in_features=1000, out_features=64, bias=True)
      (1): LeakyReLU(negative_slope=0.01)
    )
    (93): Sequential(
      (0): Linear(in_features=1000, out_features=64, bias=True)
      (1): LeakyReLU(negative_slope=0.01)
    )
    (94): Sequential(
      (0): Linear(in_features=1000, out_features=64, bias=True)
      (1): LeakyReLU(negative_slope=0.01)
    )
    (95): Sequential(
      (0): Linear(in_features=1000, out_features=64, bias=True)
      (1): LeakyReLU(negative_slope=0.01)
    )
    (96): Sequential(
      (0): Linear(in_features=1000, out_features=64, bias=True)
      (1): LeakyReLU(negative_slope=0.01)
    )
    (97): Sequential(
      (0): Linear(in_features=1000, out_features=64, bias=True)
      (1): LeakyReLU(negative_slope=0.01)
    )
    (98): Sequential(
      (0): Linear(in_features=1000, out_features=64, bias=True)
      (1): LeakyReLU(negative_slope=0.01)
    )
    (99): Sequential(
      (0): Linear(in_features=1000, out_features=64, bias=True)
      (1): LeakyReLU(negative_slope=0.01)
    )
    (100): Sequential(
      (0): Linear(in_features=1000, out_features=64, bias=True)
      (1): LeakyReLU(negative_slope=0.01)
    )
    (101): Sequential(
      (0): Linear(in_features=1000, out_features=64, bias=True)
      (1): LeakyReLU(negative_slope=0.01)
    )
    (102): Sequential(
      (0): Linear(in_features=1000, out_features=64, bias=True)
      (1): LeakyReLU(negative_slope=0.01)
    )
    (103): Sequential(
      (0): Linear(in_features=1000, out_features=64, bias=True)
      (1): LeakyReLU(negative_slope=0.01)
    )
    (104): Sequential(
      (0): Linear(in_features=1000, out_features=64, bias=True)
      (1): LeakyReLU(negative_slope=0.01)
    )
    (105): Sequential(
      (0): Linear(in_features=1000, out_features=64, bias=True)
      (1): LeakyReLU(negative_slope=0.01)
    )
    (106): Sequential(
      (0): Linear(in_features=1000, out_features=64, bias=True)
      (1): LeakyReLU(negative_slope=0.01)
    )
    (107): Sequential(
      (0): Linear(in_features=1000, out_features=64, bias=True)
      (1): LeakyReLU(negative_slope=0.01)
    )
    (108): Sequential(
      (0): Linear(in_features=1000, out_features=64, bias=True)
      (1): LeakyReLU(negative_slope=0.01)
    )
    (109): Sequential(
      (0): Linear(in_features=1000, out_features=64, bias=True)
      (1): LeakyReLU(negative_slope=0.01)
    )
    (110): Sequential(
      (0): Linear(in_features=1000, out_features=64, bias=True)
      (1): LeakyReLU(negative_slope=0.01)
    )
    (111): Sequential(
      (0): Linear(in_features=1000, out_features=64, bias=True)
      (1): LeakyReLU(negative_slope=0.01)
    )
  )
  (concept_prob_generators): ModuleList(
    (0): Linear(in_features=64, out_features=1, bias=True)
  )
  (c2y_model): Sequential(
    (0): Linear(in_features=3584, out_features=200, bias=True)
  )
  (sigmoid): Sigmoid()
  (loss_concept_labeled): BCELoss()
  (loss_concept_unlabeled): BCELoss()
  (loss_task): CrossEntropyLoss()
  (fc): Linear(in_features=512, out_features=32, bias=True)
  (pooling): AdaptiveAvgPool2d(output_size=1)
)
[2024-11-18 11:38:24 INFO]Number of parameters in model: 29706321
[2024-11-18 11:38:24 INFO]Number of non-trainable parameters in model: 0
GPU available: True (cuda), used: True
TPU available: False, using: 0 TPU cores
IPU available: False, using: 0 IPUs
HPU available: False, using: 0 HPUs
LOCAL_RANK: 0 - CUDA_VISIBLE_DEVICES: [0]
…
